…
Splitting the original training set into training/validation set (8:2)
imbalanced training set before oversampling -
0    124
1    206
Balanced training set after oversampling -
0    206
1    206
Validation set -
0    30
1    53
------------ Checking the preprocessing ------------
Model: "vgg_like"
_________________________________________________________________
 Layer (type)                Output Shape              Param #   
=================================================================
 input_1 (InputLayer)        [(None, 256, 256, 3)]     0         
                                                                 
 conv2d (Conv2D)             (None, 256, 256, 16)      448       
                                                                 
 conv2d_1 (Conv2D)           (None, 256, 256, 16)      2320      
                                                                 
 max_pooling2d (MaxPooling2D  (None, 128, 128, 16)     0         
 )                                                               
                                                                 
 conv2d_2 (Conv2D)           (None, 128, 128, 64)      9280      
                                                                 
 conv2d_3 (Conv2D)           (None, 128, 128, 64)      36928     
                                                                 
 max_pooling2d_1 (MaxPooling  (None, 64, 64, 64)       0         
 2D)                                                             
                                                                 
 conv2d_4 (Conv2D)           (None, 64, 64, 128)       73856     
                                                                 
 conv2d_5 (Conv2D)           (None, 64, 64, 128)       147584    
                                                                 
 max_pooling2d_2 (MaxPooling  (None, 32, 32, 128)      0         
 2D)                                                             
                                                                 
 conv2d_6 (Conv2D)           (None, 32, 32, 256)       295168    
                                                                 
 conv2d_7 (Conv2D)           (None, 32, 32, 256)       590080    
                                                                 
 max_pooling2d_3 (MaxPooling  (None, 16, 16, 256)      0         
 2D)                                                             
                                                                 
 global_average_pooling2d (G  (None, 256)              0         
 lobalAveragePooling2D)                                          
                                                                 
 dense (Dense)               (None, 64)                16448     
                                                                 
 dropout (Dropout)           (None, 64)                0         
                                                                 
 dense_1 (Dense)             (None, 2)                 130       
                                                                 
=================================================================
Total params: 1,172,242
Trainable params: 1,172,242
Non-trainable params: 0
_________________________________________________________________

------------ Starting training ----------
initializing from scratch.

Step 100, Loss: 0.6926432847976685, Accuracy: 52.28125, val Loss: 0.696435272693634, val Accuracy: 36.14457702636719, confusion_matrix: [[30.  0.]
…
