------------ run folder /home/RUS_CIP/st175322/dl-lab-21w-team14/experiments/run_2022-01-21-17-01-02-293170 ------------
------------ Preparing dataset hapt... -----------
Model: "sequence_GRU_model"
_________________________________________________________________
 Layer (type)                Output Shape              Param #   
=================================================================
 input_1 (InputLayer)        [(None, 250, 6)]          0         
                                                                 
 gru (GRU)                   (None, 250, 256)          202752    
                                                                 
 batch_normalization (BatchN  (None, 250, 256)         1024      
 ormalization)                                                   
                                                                 
 activation (Activation)     (None, 250, 256)          0         
                                                                 
 dense (Dense)               (None, 250, 128)          32896     
                                                                 
 batch_normalization_1 (Batc  (None, 250, 128)         512       
 hNormalization)                                                 
                                                                 
 activation_1 (Activation)   (None, 250, 128)          0         
                                                                 
 dropout (Dropout)           (None, 250, 128)          0         
                                                                 
 gru_1 (GRU)                 (None, 250, 128)          99072     
                                                                 
 batch_normalization_2 (Batc  (None, 250, 128)         512       
 hNormalization)                                                 
                                                                 
 activation_2 (Activation)   (None, 250, 128)          0         
                                                                 
 dense_1 (Dense)             (None, 250, 64)           8256      
                                                                 
 batch_normalization_3 (Batc  (None, 250, 64)          256       
 hNormalization)                                                 
                                                                 
 activation_3 (Activation)   (None, 250, 64)           0         
                                                                 
 dropout_1 (Dropout)         (None, 250, 64)           0         
                                                                 
 gru_2 (GRU)                 (None, 250, 64)           24960     
                                                                 
 batch_normalization_4 (Batc  (None, 250, 64)          256       
 hNormalization)                                                 
                                                                 
 activation_4 (Activation)   (None, 250, 64)           0         
                                                                 
 global_max_pooling1d (Globa  (None, 64)               0         
 lMaxPooling1D)                                                  
                                                                 
 dense_2 (Dense)             (None, 32)                2080      
                                                                 
 batch_normalization_5 (Batc  (None, 32)               128       
 hNormalization)                                                 
                                                                 
 activation_5 (Activation)   (None, 32)                0         
                                                                 
 dropout_2 (Dropout)         (None, 32)                0         
                                                                 
 dense_3 (Dense)             (None, 6)                 198       
                                                                 
=================================================================
Total params: 372,902
Trainable params: 371,558
Non-trainable params: 1,344
_________________________________________________________________
------------ Train and evaluate ------------

------------ Starting training ----------
initializing from scratch.

Step 100, train_loss: 1.0881935358047485, train_accuracy: 60.11731719970703, val_loss: 1.6618397235870361, val_accuracy: 22.381929397583008, confusion_matrix:
…
