------------ run folder /home/RUS_CIP/st175322/dl-lab-21w-team14/experiments/run_2022-01-21-17-36-48-656396 ------------
------------ Preparing dataset hapt... -----------
Model: "sequence_LSTM_model"
_________________________________________________________________
 Layer (type)                Output Shape              Param #   
=================================================================
 input_1 (InputLayer)        [(None, 250, 6)]          0         
                                                                 
 lstm (LSTM)                 (None, 250, 256)          269312    
                                                                 
 batch_normalization (BatchN  (None, 250, 256)         1024      
 ormalization)                                                   
                                                                 
 activation (Activation)     (None, 250, 256)          0         
                                                                 
 dense (Dense)               (None, 250, 128)          32896     
                                                                 
 batch_normalization_1 (Batc  (None, 250, 128)         512       
 hNormalization)                                                 
                                                                 
 activation_1 (Activation)   (None, 250, 128)          0         
                                                                 
 dropout (Dropout)           (None, 250, 128)          0         
                                                                 
 lstm_1 (LSTM)               (None, 250, 128)          131584    
                                                                 
 batch_normalization_2 (Batc  (None, 250, 128)         512       
 hNormalization)                                                 
                                                                 
 activation_2 (Activation)   (None, 250, 128)          0         
                                                                 
 dense_1 (Dense)             (None, 250, 64)           8256      
                                                                 
 batch_normalization_3 (Batc  (None, 250, 64)          256       
 hNormalization)                                                 
                                                                 
 activation_3 (Activation)   (None, 250, 64)           0         
                                                                 
 dropout_1 (Dropout)         (None, 250, 64)           0         
                                                                 
 lstm_2 (LSTM)               (None, 250, 64)           33024     
                                                                 
 batch_normalization_4 (Batc  (None, 250, 64)          256       
 hNormalization)                                                 
                                                                 
 activation_4 (Activation)   (None, 250, 64)           0         
                                                                 
 global_average_pooling1d (G  (None, 64)               0         
 lobalAveragePooling1D)                                          
                                                                 
 dense_2 (Dense)             (None, 32)                2080      
                                                                 
 batch_normalization_5 (Batc  (None, 32)               128       
 hNormalization)                                                 
                                                                 
 activation_5 (Activation)   (None, 32)                0         
                                                                 
 dropout_2 (Dropout)         (None, 32)                0         
                                                                 
 dense_3 (Dense)             (None, 6)                 198       
                                                                 
=================================================================
Total params: 480,038
Trainable params: 478,694
Non-trainable params: 1,344
_________________________________________________________________
------------ Train and evaluate ------------

------------ Starting training ----------
initializing from scratch.

Step 100, train_loss: 0.5281664133071899, train_accuracy: 86.20954895019531, val_loss: 1.3634707927703857, val_accuracy: 65.50308227539062, confusion_matrix:
…
